…
2022-07-04 12:11:09.630934: I tensorflow/core/common_runtime/gpu/gpu_device.cc:1102]      
Model: "model"
__________________________________________________________________________________________________
Layer (type)                    Output Shape         Param #     Connected to                     
==================================================================================================
input_1 (InputLayer)            [(None, 32, 32, 3)]  0                                            
__________________________________________________________________________________________________
conv2d (Conv2D)                 (None, 32, 32, 16)   448         input_1[0][0]                    
__________________________________________________________________________________________________
batch_normalization (BatchNorma (None, 32, 32, 16)   64          conv2d[0][0]                     
__________________________________________________________________________________________________
activation (Activation)         (None, 32, 32, 16)   0           batch_normalization[0][0]        
__________________________________________________________________________________________________
Conv2D_stack0_res0_l0 (Conv2D)  (None, 32, 32, 16)   2320        activation[0][0]                 
__________________________________________________________________________________________________
batch_normalization_1 (BatchNor (None, 32, 32, 16)   64          Conv2D_stack0_res0_l0[0][0]      
__________________________________________________________________________________________________
activation_1 (Activation)       (None, 32, 32, 16)   0           batch_normalization_1[0][0]      
__________________________________________________________________________________________________
Conv2D_stack0_res0_l1 (Conv2D)  (None, 32, 32, 16)   2320        activation_1[0][0]               
__________________________________________________________________________________________________
batch_normalization_2 (BatchNor (None, 32, 32, 16)   64          Conv2D_stack0_res0_l1[0][0]      
__________________________________________________________________________________________________
add (Add)                       (None, 32, 32, 16)   0           activation[0][0]                 
                                                                 batch_normalization_2[0][0]      
__________________________________________________________________________________________________
activation_2 (Activation)       (None, 32, 32, 16)   0           add[0][0]                        
__________________________________________________________________________________________________
Conv2D_stack0_res1_l0 (Conv2D)  (None, 32, 32, 16)   2320        activation_2[0][0]               
__________________________________________________________________________________________________
batch_normalization_3 (BatchNor (None, 32, 32, 16)   64          Conv2D_stack0_res1_l0[0][0]      
__________________________________________________________________________________________________
activation_3 (Activation)       (None, 32, 32, 16)   0           batch_normalization_3[0][0]      
__________________________________________________________________________________________________
Conv2D_stack0_res1_l1 (Conv2D)  (None, 32, 32, 16)   2320        activation_3[0][0]               
__________________________________________________________________________________________________
batch_normalization_4 (BatchNor (None, 32, 32, 16)   64          Conv2D_stack0_res1_l1[0][0]      
__________________________________________________________________________________________________
add_1 (Add)                     (None, 32, 32, 16)   0           activation_2[0][0]               
                                                                 batch_normalization_4[0][0]      
__________________________________________________________________________________________________
activation_4 (Activation)       (None, 32, 32, 16)   0           add_1[0][0]                      
__________________________________________________________________________________________________
Conv2D_stack0_res2_l0 (Conv2D)  (None, 32, 32, 16)   2320        activation_4[0][0]               
__________________________________________________________________________________________________
batch_normalization_5 (BatchNor (None, 32, 32, 16)   64          Conv2D_stack0_res2_l0[0][0]      
__________________________________________________________________________________________________
activation_5 (Activation)       (None, 32, 32, 16)   0           batch_normalization_5[0][0]      
__________________________________________________________________________________________________
Conv2D_stack0_res2_l1 (Conv2D)  (None, 32, 32, 16)   2320        activation_5[0][0]               
__________________________________________________________________________________________________
batch_normalization_6 (BatchNor (None, 32, 32, 16)   64          Conv2D_stack0_res2_l1[0][0]      
__________________________________________________________________________________________________
add_2 (Add)                     (None, 32, 32, 16)   0           activation_4[0][0]               
                                                                 batch_normalization_6[0][0]      
__________________________________________________________________________________________________
activation_6 (Activation)       (None, 32, 32, 16)   0           add_2[0][0]                      
__________________________________________________________________________________________________
Conv2D_stack1_res0_l0 (Conv2D)  (None, 16, 16, 32)   4640        activation_6[0][0]               
__________________________________________________________________________________________________
batch_normalization_7 (BatchNor (None, 16, 16, 32)   128         Conv2D_stack1_res0_l0[0][0]      
__________________________________________________________________________________________________
activation_7 (Activation)       (None, 16, 16, 32)   0           batch_normalization_7[0][0]      
__________________________________________________________________________________________________
Conv2D_stack1_res0_l1 (Conv2D)  (None, 16, 16, 32)   9248        activation_7[0][0]               
__________________________________________________________________________________________________
Conv2D_stack1_res0_l2 (Conv2D)  (None, 16, 16, 32)   544         activation_6[0][0]               
__________________________________________________________________________________________________
batch_normalization_8 (BatchNor (None, 16, 16, 32)   128         Conv2D_stack1_res0_l1[0][0]      
__________________________________________________________________________________________________
add_3 (Add)                     (None, 16, 16, 32)   0           Conv2D_stack1_res0_l2[0][0]      
                                                                 batch_normalization_8[0][0]      
__________________________________________________________________________________________________
activation_8 (Activation)       (None, 16, 16, 32)   0           add_3[0][0]                      
__________________________________________________________________________________________________
Conv2D_stack1_res1_l0 (Conv2D)  (None, 16, 16, 32)   9248        activation_8[0][0]               
__________________________________________________________________________________________________
batch_normalization_9 (BatchNor (None, 16, 16, 32)   128         Conv2D_stack1_res1_l0[0][0]      
__________________________________________________________________________________________________
activation_9 (Activation)       (None, 16, 16, 32)   0           batch_normalization_9[0][0]      
__________________________________________________________________________________________________
Conv2D_stack1_res1_l1 (Conv2D)  (None, 16, 16, 32)   9248        activation_9[0][0]               
__________________________________________________________________________________________________
batch_normalization_10 (BatchNo (None, 16, 16, 32)   128         Conv2D_stack1_res1_l1[0][0]      
__________________________________________________________________________________________________DEBUG:root:2 Found 0 of class [7, 1] to poison!
DEBUG:root:26 Found 1 of class [7, 1] to poison!
DEBUG:root:86 Found 72 of class [7, 1] to poison!
INFO:root:Using default global learning rate of n/m
INFO:root:Starting training...

add_4 (Add)                     (None, 16, 16, 32)   0           activation_8[0][0]               
                                                                 batch_normalization_10[0][0]     
__________________________________________________________________________________________________
activation_10 (Activation)      (None, 16, 16, 32)   0           add_4[0][0]                      
__________________________________________________________________________________________________
Conv2D_stack1_res2_l0 (Conv2D)  (None, 16, 16, 32)   9248        activation_10[0][0]              
__________________________________________________________________________________________________
batch_normalization_11 (BatchNo (None, 16, 16, 32)   128         Conv2D_stack1_res2_l0[0][0]      
__________________________________________________________________________________________________
activation_11 (Activation)      (None, 16, 16, 32)   0           batch_normalization_11[0][0]     
__________________________________________________________________________________________________
Conv2D_stack1_res2_l1 (Conv2D)  (None, 16, 16, 32)   9248        activation_11[0][0]              
__________________________________________________________________________________________________
batch_normalization_12 (BatchNo (None, 16, 16, 32)   128         Conv2D_stack1_res2_l1[0][0]      
__________________________________________________________________________________________________
add_5 (Add)                     (None, 16, 16, 32)   0           activation_10[0][0]              
                                                                 batch_normalization_12[0][0]     
__________________________________________________________________________________________________
activation_12 (Activation)      (None, 16, 16, 32)   0           add_5[0][0]                      
__________________________________________________________________________________________________
Conv2D_stack2_res0_l0 (Conv2D)  (None, 8, 8, 64)     18496       activation_12[0][0]              
__________________________________________________________________________________________________
batch_normalization_13 (BatchNo (None, 8, 8, 64)     256         Conv2D_stack2_res0_l0[0][0]      
__________________________________________________________________________________________________
activation_13 (Activation)      (None, 8, 8, 64)     0           batch_normalization_13[0][0]     
__________________________________________________________________________________________________
Conv2D_stack2_res0_l1 (Conv2D)  (None, 8, 8, 64)     36928       activation_13[0][0]              
__________________________________________________________________________________________________
Conv2D_stack2_res0_l2 (Conv2D)  (None, 8, 8, 64)     2112        activation_12[0][0]              
__________________________________________________________________________________________________
batch_normalization_14 (BatchNo (None, 8, 8, 64)     256         Conv2D_stack2_res0_l1[0][0]      
__________________________________________________________________________________________________
add_6 (Add)                     (None, 8, 8, 64)     0           Conv2D_stack2_res0_l2[0][0]      
                                                                 batch_normalization_14[0][0]     
__________________________________________________________________________________________________
activation_14 (Activation)      (None, 8, 8, 64)     0           add_6[0][0]                      
__________________________________________________________________________________________________
Conv2D_stack2_res1_l0 (Conv2D)  (None, 8, 8, 64)     36928       activation_14[0][0]              
__________________________________________________________________________________________________
batch_normalization_15 (BatchNo (None, 8, 8, 64)     256         Conv2D_stack2_res1_l0[0][0]      
__________________________________________________________________________________________________
activation_15 (Activation)      (None, 8, 8, 64)     0           batch_normalization_15[0][0]     
__________________________________________________________________________________________________
Conv2D_stack2_res1_l1 (Conv2D)  (None, 8, 8, 64)     36928       activation_15[0][0]              
__________________________________________________________________________________________________
batch_normalization_16 (BatchNo (None, 8, 8, 64)     256         Conv2D_stack2_res1_l1[0][0]      
__________________________________________________________________________________________________
add_7 (Add)                     (None, 8, 8, 64)     0           activation_14[0][0]              
                                                                 batch_normalization_16[0][0]     
__________________________________________________________________________________________________
activation_16 (Activation)      (None, 8, 8, 64)     0           add_7[0][0]                      
__________________________________________________________________________________________________
Conv2D_stack2_res2_l0 (Conv2D)  (None, 8, 8, 64)     36928       activation_16[0][0]              
__________________________________________________________________________________________________
batch_normalization_17 (BatchNo (None, 8, 8, 64)     256         Conv2D_stack2_res2_l0[0][0]      
__________________________________________________________________________________________________
activation_17 (Activation)      (None, 8, 8, 64)     0           batch_normalization_17[0][0]     
__________________________________________________________________________________________________
Conv2D_stack2_res2_l1 (Conv2D)  (None, 8, 8, 64)     36928       activation_17[0][0]              
__________________________________________________________________________________________________
batch_normalization_18 (BatchNo (None, 8, 8, 64)     256         Conv2D_stack2_res2_l1[0][0]      
__________________________________________________________________________________________________
add_8 (Add)                     (None, 8, 8, 64)     0           activation_16[0][0]              
                                                                 batch_normalization_18[0][0]     
__________________________________________________________________________________________________
activation_18 (Activation)      (None, 8, 8, 64)     0           add_8[0][0]                      
__________________________________________________________________________________________________
average_pooling2d (AveragePooli (None, 1, 1, 64)     0           activation_18[0][0]              
__________________________________________________________________________________________________
flatten (Flatten)               (None, 64)           0           average_pooling2d[0][0]          
__________________________________________________________________________________________________
dense (Dense)                   (None, 10)           650         flatten[0][0]                    
==================================================================================================
Total params: 274,442
Trainable params: 273,066
Non-trainable params: 1,376
__________________________________________________________________________________________________
Got 73/10000000 samples for 3 tasks!
Replacing value tasks
Replacing value tasks
Replacing value tasks
…
