…
Replacing value tasks
Replacing value tasks
Replacing value tasks
Replacing value tasks
Replacing value tasks
Replacing value tasks
Replacing value tasks
Replacing value tasks
round= 0 	test_accuracy= 0.083333336 	adv_success= 0.0 	test_loss= 2.305603
>>>>>> HERE we simulate the pruning process, the global weight is in  <class 'list'> type and in  8 size.
Model: "sequential"
_________________________________________________________________
Layer (type)                 Output Shape              Param #   
=================================================================
conv2d (Conv2D)              (None, 28, 28, 64)        320       
_________________________________________________________________
max_pooling2d (MaxPooling2D) (None, 14, 14, 64)        0         
_________________________________________________________________
conv2d_1 (Conv2D)            (None, 14, 14, 32)        8224      
_________________________________________________________________
max_pooling2d_1 (MaxPooling2 (None, 7, 7, 32)          0         
_________________________________________________________________
flatten (Flatten)            (None, 1568)              0         
_________________________________________________________________
dense (Dense)                (None, 256)               401664    
_________________________________________________________________
dense_1 (Dense)              (None, 10)                2570      
=================================================================
Total params: 412,778
Trainable params: 412,778
Non-trainable params: 0
_________________________________________________________________
None
 >> Building saliency matrix for layer 5...
 [DEBUG] [92m Accepting [0m (162, 153) 0.9923836050829362
 [DEBUG] [92m Accepting [0m (131, 243) 0.9908849650190479
 [DEBUG] [92m Accepting [0m (164, 48) 0.9893803488051056
 [DEBUG] [92m Accepting [0m (9, 186) 0.9851646160399933
 [DEBUG] [91m Reject [0m (139, 141) because the score 0.985853 > 0.985165 and random prob. doesn't satisfy 0.001025
 [DEBUG] [91m Reject [0m (65, 221) because the score 0.992667 > 0.985165 and random prob. doesn't satisfy 0.387441
 [DEBUG] [92m Accepting (stochastic) [0m (0, 202) despite the score 0.991682 because the probability 0.571655 <= 0.660707
 [DEBUG] [92m Accepting (stochastic) [0m (58, 240) despite the score 0.992951 because the probability 0.450276 <= 0.92245
 [DEBUG] [92m Accepting [0m (75, 188) 0.9924430786365107
Pruning layer # 5 completed, updating definition hash map...
 >> DEBUG: size of cumulative impact total 10
Pruning accomplished - 7 units have been pruned
 >> Pruning [(162, 153), (131, 243), (164, 48), (9, 186), (0, 202), (58, 240), (75, 188)] at layer 5
 >>   with assessment score  0.992 0.991 0.989 0.985 0.992 0.993 0.992 
 >> Updated target scores at this layer: 0.992
 >> Cumulative impact as intervals after this epoch:
…
 >>> Pruned model saved
Elapsed time:  0.242 minutes / 14 seconds
Pruning accomplished
Overwriting existing pruned model ...
 >>> Pruned model saved
round= 1 	test_accuracy= 0.475 	adv_success= 0.041666666666666664 	test_loss= 2.2448583 	duration= 25.44962191581726
>>>>>> HERE we simulate the pruning process, the global weight is in  <class 'list'> type and in  8 size.
Model: "sequential"
_________________________________________________________________
Layer (type)                 Output Shape              Param #   
=================================================================
conv2d (Conv2D)              (None, 28, 28, 64)        320       
_________________________________________________________________
max_pooling2d (MaxPooling2D) (None, 14, 14, 64)        0         
_________________________________________________________________
conv2d_1 (Conv2D)            (None, 14, 14, 32)        8224      
_________________________________________________________________
max_pooling2d_1 (MaxPooling2 (None, 7, 7, 32)          0         
_________________________________________________________________
flatten (Flatten)            (None, 1568)              0         
_________________________________________________________________
dense (Dense)                (None, 256)               401664    
_________________________________________________________________
dense_1 (Dense)              (None, 10)                2570      
=================================================================
Total params: 412,778
Trainable params: 412,778
Non-trainable params: 0
_________________________________________________________________
None
 >> Building saliency matrix for layer 5...
 [DEBUG] [92m Accepting [0m (153, 161) 0.5978457008630657
 [DEBUG] [91m Reject [0m (48, 212) because the score 0.713075 > 0.597846 and random prob. doesn't satisfy 0.0
 [DEBUG] [91m Reject [0m (243, 35) because the score 0.757028 > 0.597846 and random prob. doesn't satisfy 0.0
 [DEBUG] [91m Reject [0m (240, 144) because the score 0.780848 > 0.597846 and random prob. doesn't satisfy 9e-06
 [DEBUG] [91m Reject [0m (202, 83) because the score 0.809054 > 0.597846 and random prob. doesn't satisfy 0.000127
…
 >>> Pruned model saved
Elapsed time:  0.238 minutes / 14 seconds
Pruning accomplished
Overwriting existing pruned model ...
 >>> Pruned model saved
round= 2 	test_accuracy= 0.475 	adv_success= 0.041666666666666664 	test_loss= 2.2448583 	duration= 25.284177541732788
>>>>>> HERE we simulate the pruning process, the global weight is in  <class 'list'> type and in  8 size.
Model: "sequential"
_________________________________________________________________
Layer (type)                 Output Shape              Param #   
=================================================================
conv2d (Conv2D)              (None, 28, 28, 64)        320       
_________________________________________________________________
max_pooling2d (MaxPooling2D) (None, 14, 14, 64)        0         
_________________________________________________________________
conv2d_1 (Conv2D)            (None, 14, 14, 32)        8224      
_________________________________________________________________
max_pooling2d_1 (MaxPooling2 (None, 7, 7, 32)          0         
_________________________________________________________________
flatten (Flatten)            (None, 1568)              0         
_________________________________________________________________
dense (Dense)                (None, 256)               401664    
_________________________________________________________________
dense_1 (Dense)              (None, 10)                2570      
=================================================================
Total params: 412,778
Trainable params: 412,778
Non-trainable params: 0
_________________________________________________________________
None
 >> Building saliency matrix for layer 5...
 [DEBUG] [92m Accepting [0m (164, 96) 0.5
 [DEBUG] [92m Accepting [0m (111, 123) 0.5
 [DEBUG] [92m Accepting [0m (54, 0) 0.5
 [DEBUG] [92m Accepting [0m (161, 40) 0.5
 [DEBUG] [92m Accepting [0m (82, 207) 0.5
 [DEBUG] [92m Accepting [0m (159, 176) 0.5
 [DEBUG] [92m Accepting [0m (3, 162) 0.5
Pruning layer # 5 completed, updating definition hash map...
 >> DEBUG: size of cumulative impact total 10
Pruning accomplished - 7 units have been pruned
 >> Pruning [(164, 96), (111, 123), (54, 0), (161, 40), (82, 207), (159, 176), (3, 162)] at layer 5
 >>   with assessment score  0.5 0.5 0.5 0.5 0.5 0.5 0.5 
 >> Updated target scores at this layer: 0.5
 >> Cumulative impact as intervals after this epoch:
…
 >>> Pruned model saved
Elapsed time:  0.237 minutes / 14 seconds
Pruning accomplished
Overwriting existing pruned model ...
 >>> Pruned model saved
round= 3 	test_accuracy= 0.475 	adv_success= 1.0 	test_loss= 2.2448583 	duration= 20.4684476852417
>>>>>> HERE we simulate the pruning process, the global weight is in  <class 'list'> type and in  8 size.
Model: "sequential"
_________________________________________________________________
Layer (type)                 Output Shape              Param #   
=================================================================
conv2d (Conv2D)              (None, 28, 28, 64)        320       
_________________________________________________________________
max_pooling2d (MaxPooling2D) (None, 14, 14, 64)        0         
_________________________________________________________________
conv2d_1 (Conv2D)            (None, 14, 14, 32)        8224      
_________________________________________________________________
max_pooling2d_1 (MaxPooling2 (None, 7, 7, 32)          0         
_________________________________________________________________
flatten (Flatten)            (None, 1568)              0         
_________________________________________________________________
dense (Dense)                (None, 256)               401664    
_________________________________________________________________
dense_1 (Dense)              (None, 10)                2570      
=================================================================
Total params: 412,778
Trainable params: 412,778
Non-trainable params: 0
_________________________________________________________________
None
 >> Building saliency matrix for layer 5...
 [DEBUG] [92m Accepting [0m (88, 89) 0.5
 [DEBUG] [92m Accepting [0m (87, 185) 0.5
 [DEBUG] [92m Accepting [0m (152, 151) 0.5
 [DEBUG] [92m Accepting [0m (255, 253) 0.5
 [DEBUG] [92m Accepting [0m (39, 217) 0.5
 [DEBUG] [92m Accepting [0m (42, 41) 0.5
 [DEBUG] [92m Accepting [0m (183, 0) 0.5
Pruning layer # 5 completed, updating definition hash map...
 >> DEBUG: size of cumulative impact total 10
Pruning accomplished - 7 units have been pruned
 >> Pruning [(88, 89), (87, 185), (152, 151), (255, 253), (39, 217), (42, 41), (183, 0)] at layer 5
 >>   with assessment score  0.5 0.5 0.5 0.5 0.5 0.5 0.5 
 >> Updated target scores at this layer: 0.5
 >> Cumulative impact as intervals after this epoch:
…
round= 4 	test_accuracy= 0.475 	adv_success= 1.0 	test_loss= 2.2448583 	duration= 20.609243154525757
Adv success: 1.0
Adv success: 1.0
Adv success: 1.0
Adv success: 1.0
Adv success: 1.0
Adv success: 1.0
Adv success: 1.0
Adv success: 1.0
Adv success: 1.0
>>>>>> HERE we simulate the pruning process, the global weight is in  <class 'list'> type and in  8 size.
Model: "sequential"
_________________________________________________________________
Layer (type)                 Output Shape              Param #   
=================================================================
conv2d (Conv2D)              (None, 28, 28, 64)        320       
_________________________________________________________________
max_pooling2d (MaxPooling2D) (None, 14, 14, 64)        0         
_________________________________________________________________
conv2d_1 (Conv2D)            (None, 14, 14, 32)        8224      
_________________________________________________________________
max_pooling2d_1 (MaxPooling2 (None, 7, 7, 32)          0         
_________________________________________________________________
flatten (Flatten)            (None, 1568)              0         
_________________________________________________________________
dense (Dense)                (None, 256)               401664    
_________________________________________________________________
dense_1 (Dense)              (None, 10)                2570      
=================================================================
Total params: 412,778
Trainable params: 412,778
Non-trainable params: 0
_________________________________________________________________
None
 >> Building saliency matrix for layer 5...
 [DEBUG] [92m Accepting [0m (89, 88) 0.5
 [DEBUG] [92m Accepting [0m (87, 185) 0.5
 [DEBUG] [92m Accepting [0m (151, 152) 0.5
 [DEBUG] [92m Accepting [0m (255, 253) 0.5
 [DEBUG] [92m Accepting [0m (39, 217) 0.5
 [DEBUG] [92m Accepting [0m (41, 42) 0.5
 [DEBUG] [92m Accepting [0m (183, 0) 0.5
Pruning layer # 5 completed, updating definition hash map...
 >> DEBUG: size of cumulative impact total 10
Pruning accomplished - 7 units have been pruned
 >> Pruning [(89, 88), (87, 185), (151, 152), (255, 253), (39, 217), (41, 42), (183, 0)] at layer 5
 >>   with assessment score  0.5 0.5 0.5 0.5 0.5 0.5 0.5 
 >> Updated target scores at this layer: 0.5
 >> Cumulative impact as intervals after this epoch:
…
